# parameters
nc: 80  # number of classes
depth_multiple: 1.0  # model depth multiple
width_multiple: 1.0  # layer channel multiple

# anchors
anchors:
  - [ 19,27,  44,40,  38,94 ]  # P3/8
  - [ 96,68,  86,152,  180,137 ]  # P4/16
  - [ 140,301,  303,264,  238,542 ]  # P5/32
  - [ 436,615,  739,380,  925,792 ]  # P6/64

# yolov7 backbone
backbone:
  # [from, number, module, args],
  [[-1, 1, ReOrg, []],  # 0
   [-1, 1, Conv, [80, 3, 1]],  # 1-P1/2
   
   [-1, 1, DownC, [160]],  # 2-P2/4  
   [-1, 1, Conv, [64, 1, 1]],
   [-2, 1, Conv, [64, 1, 1]],
   [-1, 1, Conv, [64, 3, 1]],
   [-1, 1, Conv, [64, 3, 1]],
   [-1, 1, Conv, [64, 3, 1]],
   [-1, 1, Conv, [64, 3, 1]],
   [-1, 1, Conv, [64, 3, 1]],
   [-1, 1, Conv, [64, 3, 1]],
   [[-1, -3, -5, -7, -8], 1, Concat, [1]],
   [-1, 1, Conv, [160, 1, 1]],  # 12
   [-11, 1, Conv, [64, 1, 1]],
   [-12, 1, Conv, [64, 1, 1]],
   [-1, 1, Conv, [64, 3, 1]],
   [-1, 1, Conv, [64, 3, 1]],
   [-1, 1, Conv, [64, 3, 1]],
   [-1, 1, Conv, [64, 3, 1]],
   [-1, 1, Conv, [64, 3, 1]],
   [-1, 1, Conv, [64, 3, 1]],
   [[-1, -3, -5, -7, -8], 1, Concat, [1]],
   [-1, 1, Conv, [160, 1, 1]],  # 22
   [[-1, -11], 1, Shortcut, [1]],  # 23
         
   [-1, 1, DownC, [320]],  # 24-P3/8  
   [-1, 1, Conv, [128, 1, 1]],
   [-2, 1, Conv, [128, 1, 1]],
   [-1, 1, Conv, [128, 3, 1]],
   [-1, 1, Conv, [128, 3, 1]],
   [-1, 1, Conv, [128, 3, 1]],
   [-1, 1, Conv, [128, 3, 1]],
   [-1, 1, Conv, [128, 3, 1]],
   [-1, 1, Conv, [128, 3, 1]],
   [[-1, -3, -5, -7, -8], 1, Concat, [1]],
   [-1, 1, Conv, [320, 1, 1]],  # 34
   [-11, 1, Conv, [128, 1, 1]],
   [-12, 1, Conv, [128, 1, 1]],
   [-1, 1, Conv, [128, 3, 1]],
   [-1, 1, Conv, [128, 3, 1]],
   [-1, 1, Conv, [128, 3, 1]],
   [-1, 1, Conv, [128, 3, 1]],
   [-1, 1, Conv, [128, 3, 1]],
   [-1, 1, Conv, [128, 3, 1]],
   [[-1, -3, -5, -7, -8], 1, Concat, [1]],
   [-1, 1, Conv, [320, 1, 1]],  # 44
   [[-1, -11], 1, Shortcut, [1]],  # 45
         
   [-1, 1, DownC, [640]],  # 46-P4/16  
   [-1, 1, Conv, [256, 1, 1]],
   [-2, 1, Conv, [256, 1, 1]],
   [-1, 1, Conv, [256, 3, 1]],
   [-1, 1, Conv, [256, 3, 1]],
   [-1, 1, Conv, [256, 3, 1]],
   [-1, 1, Conv, [256, 3, 1]],
   [-1, 1, Conv, [256, 3, 1]],
   [-1, 1, Conv, [256, 3, 1]],
   [[-1, -3, -5, -7, -8], 1, Concat, [1]],
   [-1, 1, Conv, [640, 1, 1]],  # 56
   [-11, 1, Conv, [256, 1, 1]],
   [-12, 1, Conv, [256, 1, 1]],
   [-1, 1, Conv, [256, 3, 1]],
   [-1, 1, Conv, [256, 3, 1]],
   [-1, 1, Conv, [256, 3, 1]],
   [-1, 1, Conv, [256, 3, 1]],
   [-1, 1, Conv, [256, 3, 1]],
   [-1, 1, Conv, [256, 3, 1]],
   [[-1, -3, -5, -7, -8], 1, Concat, [1]],
   [-1, 1, Conv, [640, 1, 1]],  # 66
   [[-1, -11], 1, Shortcut, [1]],  # 67
         
   [-1, 1, DownC, [960]],  # 68-P5/32  
   [-1, 1, Conv, [384, 1, 1]],
   [-2, 1, Conv, [384, 1, 1]],
   [-1, 1, Conv, [384, 3, 1]],
   [-1, 1, Conv, [384, 3, 1]],
   [-1, 1, Conv, [384, 3, 1]],
   [-1, 1, Conv, [384, 3, 1]],
   [-1, 1, Conv, [384, 3, 1]],
   [-1, 1, Conv, [384, 3, 1]],
   [[-1, -3, -5, -7, -8], 1, Concat, [1]],
   [-1, 1, Conv, [960, 1, 1]],  # 78
   [-11, 1, Conv, [384, 1, 1]],
   [-12, 1, Conv, [384, 1, 1]],
   [-1, 1, Conv, [384, 3, 1]],
   [-1, 1, Conv, [384, 3, 1]],
   [-1, 1, Conv, [384, 3, 1]],
   [-1, 1, Conv, [384, 3, 1]],
   [-1, 1, Conv, [384, 3, 1]],
   [-1, 1, Conv, [384, 3, 1]],
   [[-1, -3, -5, -7, -8], 1, Concat, [1]],
   [-1, 1, Conv, [960, 1, 1]],  # 88
   [[-1, -11], 1, Shortcut, [1]],  # 89
         
   [-1, 1, DownC, [1280]],  # 90-P6/64  
   [-1, 1, Conv, [512, 1, 1]],
   [-2, 1, Conv, [512, 1, 1]],
   [-1, 1, Conv, [512, 3, 1]],
   [-1, 1, Conv, [512, 3, 1]],
   [-1, 1, Conv, [512, 3, 1]],
   [-1, 1, Conv, [512, 3, 1]],
   [-1, 1, Conv, [512, 3, 1]],
   [-1, 1, Conv, [512, 3, 1]],
   [[-1, -3, -5, -7, -8], 1, Concat, [1]],
   [-1, 1, Conv, [1280, 1, 1]],  # 100 
   [-11, 1, Conv, [512, 1, 1]],
   [-12, 1, Conv, [512, 1, 1]],
   [-1, 1, Conv, [512, 3, 1]],
   [-1, 1, Conv, [512, 3, 1]],
   [-1, 1, Conv, [512, 3, 1]],
   [-1, 1, Conv, [512, 3, 1]],
   [-1, 1, Conv, [512, 3, 1]],
   [-1, 1, Conv, [512, 3, 1]],
   [[-1, -3, -5, -7, -8], 1, Concat, [1]],
   [-1, 1, Conv, [1280, 1, 1]],  # 110
   [[-1, -11], 1, Shortcut, [1]],  # 111 
  ]

# 1 (P1 backbone)   /2
# 23 (P2 backbone)  /4
# 45 (P3 backbone)  /8
# 67 (P4 backbone)  /16
# 89 (P5 backbone)  /32
# 111 (P6 backbone) /64


# yolov7 head
head:
  [
   # bifusion module 1
   [111, 1, SPPCSPC, [640]],  # 112
   #    RB block1, route backbone P5+P4+P6
   #    output/current/shallow/deep layer depth 480/384/192/384
   #    upsample scale factor 2, mode nearest
   [-1, 1, Conv, [384, 1, 1]], #113
   [[89, 67, -1], 1, RBBlockA, [480, '384,1,1;192,1,2', 2, 'nearest']],  # 114
   [-1, 1, Bottleneck, [384, False]],
   [-1, 2, BottleneckCSPB, [384]],
   [-1, 1, InceptionBlockA, [384]],
   [-1, 1, Bottleneck, [192, False]],  
   [-1, 2, BottleneckCSPB, [192]], # 119
   
   #    RB block2, route backbone P4+P3+RB Block1
   #    output/current/shallow/deep layer depth 320/256/128/256
   #    upsample scale factor 2, mode nearest
   [-1, 1, Conv, [256, 1, 1]], # 120
   [[67, 45, -1], 1, RBBlockA, [320, '256,1,1;128,1,2', 2, 'nearest']],  # 121
   [-1, 1, Bottleneck, [256, False]],
   [-1, 2, BottleneckCSPB, [256]],
   [-1, 1, InceptionBlockA, [256]],
   [-1, 1, Bottleneck, [128, False]],
   [-1, 2, BottleneckCSPB, [128]],  # 126

   #    RB block3, route backbone P3+P2+RB Block2
   #    output/current/shallow/deep layer depth 160/128/64/128
   #    upsample scale factor 2, mode nearest
   [-1, 1, Conv, [128, 1, 1]], # 127
   [[45, 23, -1], 1, RBBlockA, [160, '128,1,1;64,1,2', 2, 'nearest']],  # 128
   [-1, 1, Bottleneck, [128, False]],
   [-1, 2, BottleneckCSPB, [128]],
   [-1, 1, InceptionBlockA, [128]],
   [-1, 1, Bottleneck, [64, False]],
   [-1, 2, BottleneckCSPB, [64]],  # 133
   
   #    BFM1
   [[-1,127], 1, BFM, [128, '64,1,1;64,1,1']], 
   [-1, 1, Bottleneck, [128, False]],
   [-1, 2, BottleneckCSPB, [64]],  # 136

   #    BFM2
   [[-1,120], 1, BFM, [256, '128,1,1;128,1,1']], 
   [-1, 1, Bottleneck, [256, False]],
   [-1, 2, BottleneckCSPB, [128]],  # 139

   #    BFM3
   [[-1,113], 1, BFM, [512, '256,1,1;256,1,1']], 
   [-1, 1, Bottleneck, [512, False]],
   [-1, 2, BottleneckCSPB, [256]],  # 142
   # end of bifusion module 1
   
   
   #Lead Head
   [133, 1, Conv, [320, 1, 1]],
   [136, 1, Conv, [640, 1, 1]],
   [139, 1, Conv, [960, 1, 1]],   
   [142, 1, Conv, [1280, 1, 1]],

   #Iux Head
   [133, 1, Conv, [320, 1, 1]],
   [126, 1, Conv, [640, 1, 1]],
   [119, 1, Conv, [960, 1, 1]],   
   [113, 1, Conv, [1280, 1, 1]],

   [[143, 144, 145, 146, 147, 148, 149, 150], 1, IAuxDetect, [nc, anchors]],   # Detect(P3, P4, P5, P6)
  ]
